…
/VisionLab/attilalengyel/datasets', epochs=300, hflip=False, log_interval=10, lr=0.05, model='resnet44_gip4m', momentum=0.9, no_cuda=False, rc=0, samples=None, seed=1, test_batch_size=1000, wd=1e-05)
===================================================================================================================
Layer (type:depth-idx)                   Input Shape               Output Shape              Param #
===================================================================================================================
├─P4MConvZ2: 1-1                         [1, 3, 32, 32]            [1, 28, 8, 32, 32]        756
├─Sequential: 1-2                        [1, 28, 8, 32, 32]        [1, 28, 8, 32, 32]        --
|    └─BasicBlock: 2-1                   [1, 28, 8, 32, 32]        [1, 28, 8, 32, 32]        --
|    |    └─BatchNorm3d: 3-1             [1, 28, 8, 32, 32]        [1, 28, 8, 32, 32]        56
|    |    └─ReLU: 3-2                    [1, 28, 8, 32, 32]        [1, 28, 8, 32, 32]        --
|    |    └─P4MConvP4M: 3-3              [1, 28, 8, 32, 32]        [1, 28, 8, 32, 32]        6,524
|    |    └─BatchNorm3d: 3-4             [1, 28, 8, 32, 32]        [1, 28, 8, 32, 32]        56
|    |    └─ReLU: 3-5                    [1, 28, 8, 32, 32]        [1, 28, 8, 32, 32]        --
|    |    └─P4MConvP4M: 3-6              [1, 28, 8, 32, 32]        [1, 28, 8, 32, 32]        6,524
|    └─BasicBlock: 2-2                   [1, 28, 8, 32, 32]        [1, 28, 8, 32, 32]        --
|    |    └─BatchNorm3d: 3-7             [1, 28, 8, 32, 32]        [1, 28, 8, 32, 32]        56
|    |    └─ReLU: 3-8                    [1, 28, 8, 32, 32]        [1, 28, 8, 32, 32]        --
|    |    └─P4MConvP4M: 3-9              [1, 28, 8, 32, 32]        [1, 28, 8, 32, 32]        6,524
|    |    └─BatchNorm3d: 3-10            [1, 28, 8, 32, 32]        [1, 28, 8, 32, 32]        56
|    |    └─ReLU: 3-11                   [1, 28, 8, 32, 32]        [1, 28, 8, 32, 32]        --
|    |    └─P4MConvP4M: 3-12             [1, 28, 8, 32, 32]        [1, 28, 8, 32, 32]        6,524
|    └─BasicBlock: 2-3                   [1, 28, 8, 32, 32]        [1, 28, 8, 32, 32]        --
|    |    └─BatchNorm3d: 3-13            [1, 28, 8, 32, 32]        [1, 28, 8, 32, 32]        56
|    |    └─ReLU: 3-14                   [1, 28, 8, 32, 32]        [1, 28, 8, 32, 32]        --
|    |    └─P4MConvP4M: 3-15             [1, 28, 8, 32, 32]        [1, 28, 8, 32, 32]        6,524
|    |    └─BatchNorm3d: 3-16            [1, 28, 8, 32, 32]        [1, 28, 8, 32, 32]        56
|    |    └─ReLU: 3-17                   [1, 28, 8, 32, 32]        [1, 28, 8, 32, 32]        --
|    |    └─P4MConvP4M: 3-18             [1, 28, 8, 32, 32]        [1, 28, 8, 32, 32]        6,524
|    └─BasicBlock: 2-4                   [1, 28, 8, 32, 32]        [1, 28, 8, 32, 32]        --
|    |    └─BatchNorm3d: 3-19            [1, 28, 8, 32, 32]        [1, 28, 8, 32, 32]        56
|    |    └─ReLU: 3-20                   [1, 28, 8, 32, 32]        [1, 28, 8, 32, 32]        --
|    |    └─P4MConvP4M: 3-21             [1, 28, 8, 32, 32]        [1, 28, 8, 32, 32]        6,524
|    |    └─BatchNorm3d: 3-22            [1, 28, 8, 32, 32]        [1, 28, 8, 32, 32]        56
|    |    └─ReLU: 3-23                   [1, 28, 8, 32, 32]        [1, 28, 8, 32, 32]        --
|    |    └─P4MConvP4M: 3-24             [1, 28, 8, 32, 32]        [1, 28, 8, 32, 32]        6,524
|    └─BasicBlock: 2-5                   [1, 28, 8, 32, 32]        [1, 28, 8, 32, 32]        --
|    |    └─BatchNorm3d: 3-25            [1, 28, 8, 32, 32]        [1, 28, 8, 32, 32]        56
|    |    └─ReLU: 3-26                   [1, 28, 8, 32, 32]        [1, 28, 8, 32, 32]        --
|    |    └─P4MConvP4M: 3-27             [1, 28, 8, 32, 32]        [1, 28, 8, 32, 32]        6,524
|    |    └─BatchNorm3d: 3-28            [1, 28, 8, 32, 32]        [1, 28, 8, 32, 32]        56
|    |    └─ReLU: 3-29                   [1, 28, 8, 32, 32]        [1, 28, 8, 32, 32]        --
|    |    └─P4MConvP4M: 3-30             [1, 28, 8, 32, 32]        [1, 28, 8, 32, 32]        6,524
|    └─BasicBlock: 2-6                   [1, 28, 8, 32, 32]        [1, 28, 8, 32, 32]        --
|    |    └─BatchNorm3d: 3-31            [1, 28, 8, 32, 32]        [1, 28, 8, 32, 32]        56
|    |    └─ReLU: 3-32                   [1, 28, 8, 32, 32]        [1, 28, 8, 32, 32]        --
|    |    └─P4MConvP4M: 3-33             [1, 28, 8, 32, 32]        [1, 28, 8, 32, 32]        6,524
|    |    └─BatchNorm3d: 3-34            [1, 28, 8, 32, 32]        [1, 28, 8, 32, 32]        56
|    |    └─ReLU: 3-35                   [1, 28, 8, 32, 32]        [1, 28, 8, 32, 32]        --
|    |    └─P4MConvP4M: 3-36             [1, 28, 8, 32, 32]        [1, 28, 8, 32, 32]        6,524
|    └─BasicBlock: 2-7                   [1, 28, 8, 32, 32]        [1, 28, 8, 32, 32]        --
|    |    └─BatchNorm3d: 3-37            [1, 28, 8, 32, 32]        [1, 28, 8, 32, 32]        56
|    |    └─ReLU: 3-38                   [1, 28, 8, 32, 32]        [1, 28, 8, 32, 32]        --
|    |    └─P4MConvP4M: 3-39             [1, 28, 8, 32, 32]        [1, 28, 8, 32, 32]        6,524
|    |    └─BatchNorm3d: 3-40            [1, 28, 8, 32, 32]        [1, 28, 8, 32, 32]        56
|    |    └─ReLU: 3-41                   [1, 28, 8, 32, 32]        [1, 28, 8, 32, 32]        --
|    |    └─P4MConvP4M: 3-42             [1, 28, 8, 32, 32]        [1, 28, 8, 32, 32]        6,524
├─Sequential: 1-3                        [1, 28, 8, 32, 32]        [1, 56, 8, 16, 16]        --
|    └─BasicBlock: 2-8                   [1, 28, 8, 32, 32]        [1, 56, 8, 16, 16]        --
|    |    └─BatchNorm3d: 3-43            [1, 28, 8, 32, 32]        [1, 28, 8, 32, 32]        56
|    |    └─ReLU: 3-44                   [1, 28, 8, 32, 32]        [1, 28, 8, 32, 32]        --
|    |    └─P4MConvP4M: 3-45             [1, 28, 8, 32, 32]        [1, 56, 8, 16, 16]        13,048
|    |    └─BatchNorm3d: 3-46            [1, 56, 8, 16, 16]        [1, 56, 8, 16, 16]        112
|    |    └─ReLU: 3-47                   [1, 56, 8, 16, 16]        [1, 56, 8, 16, 16]        --
|    |    └─P4MConvP4M: 3-48             [1, 56, 8, 16, 16]        [1, 56, 8, 16, 16]        25,592
|    |    └─Sequential: 3-49             [1, 28, 8, 32, 32]        [1, 56, 8, 16, 16]        12,656
|    └─BasicBlock: 2-9                   [1, 56, 8, 16, 16]        [1, 56, 8, 16, 16]        --
|    |    └─BatchNorm3d: 3-50            [1, 56, 8, 16, 16]        [1, 56, 8, 16, 16]        112
|    |    └─ReLU: 3-51                   [1, 56, 8, 16, 16]        [1, 56, 8, 16, 16]        --
|    |    └─P4MConvP4M: 3-52             [1, 56, 8, 16, 16]        [1, 56, 8, 16, 16]        25,592
|    |    └─BatchNorm3d: 3-53            [1, 56, 8, 16, 16]        [1, 56, 8, 16, 16]        112
|    |    └─ReLU: 3-54                   [1, 56, 8, 16, 16]        [1, 56, 8, 16, 16]        --
|    |    └─P4MConvP4M: 3-55             [1, 56, 8, 16, 16]        [1, 56, 8, 16, 16]        25,592
|    └─BasicBlock: 2-10                  [1, 56, 8, 16, 16]        [1, 56, 8, 16, 16]        --
|    |    └─BatchNorm3d: 3-56            [1, 56, 8, 16, 16]        [1, 56, 8, 16, 16]        112
|    |    └─ReLU: 3-57                   [1, 56, 8, 16, 16]        [1, 56, 8, 16, 16]        --
|    |    └─P4MConvP4M: 3-58             [1, 56, 8, 16, 16]        [1, 56, 8, 16, 16]        25,592
|    |    └─BatchNorm3d: 3-59            [1, 56, 8, 16, 16]        [1, 56, 8, 16, 16]        112
|    |    └─ReLU: 3-60                   [1, 56, 8, 16, 16]        [1, 56, 8, 16, 16]        --
|    |    └─P4MConvP4M: 3-61             [1, 56, 8, 16, 16]        [1, 56, 8, 16, 16]        25,592
|    └─BasicBlock: 2-11                  [1, 56, 8, 16, 16]        [1, 56, 8, 16, 16]        --
|    |    └─BatchNorm3d: 3-62            [1, 56, 8, 16, 16]        [1, 56, 8, 16, 16]        112
|    |    └─ReLU: 3-63                   [1, 56, 8, 16, 16]        [1, 56, 8, 16, 16]        --
|    |    └─P4MConvP4M: 3-64             [1, 56, 8, 16, 16]        [1, 56, 8, 16, 16]        25,592
|    |    └─BatchNorm3d: 3-65            [1, 56, 8, 16, 16]        [1, 56, 8, 16, 16]        112
|    |    └─ReLU: 3-66                   [1, 56, 8, 16, 16]        [1, 56, 8, 16, 16]        --
|    |    └─P4MConvP4M: 3-67             [1, 56, 8, 16, 16]        [1, 56, 8, 16, 16]        25,592
|    └─BasicBlock: 2-12                  [1, 56, 8, 16, 16]        [1, 56, 8, 16, 16]        --
|    |    └─BatchNorm3d: 3-68            [1, 56, 8, 16, 16]        [1, 56, 8, 16, 16]        112
|    |    └─ReLU: 3-69                   [1, 56, 8, 16, 16]        [1, 56, 8, 16, 16]        --
|    |    └─P4MConvP4M: 3-70             [1, 56, 8, 16, 16]        [1, 56, 8, 16, 16]        25,592
|    |    └─BatchNorm3d: 3-71            [1, 56, 8, 16, 16]        [1, 56, 8, 16, 16]        112
|    |    └─ReLU: 3-72                   [1, 56, 8, 16, 16]        [1, 56, 8, 16, 16]        --
|    |    └─P4MConvP4M: 3-73             [1, 56, 8, 16, 16]        [1, 56, 8, 16, 16]        25,592
|    └─BasicBlock: 2-13                  [1, 56, 8, 16, 16]        [1, 56, 8, 16, 16]        --
|    |    └─BatchNorm3d: 3-74            [1, 56, 8, 16, 16]        [1, 56, 8, 16, 16]        112
|    |    └─ReLU: 3-75                   [1, 56, 8, 16, 16]        [1, 56, 8, 16, 16]        --
|    |    └─P4MConvP4M: 3-76             [1, 56, 8, 16, 16]        [1, 56, 8, 16, 16]        25,592
|    |    └─BatchNorm3d: 3-77            [1, 56, 8, 16, 16]        [1, 56, 8, 16, 16]        112
|    |    └─ReLU: 3-78                   [1, 56, 8, 16, 16]        [1, 56, 8, 16, 16]        --
|    |    └─P4MConvP4M: 3-79             [1, 56, 8, 16, 16]        [1, 56, 8, 16, 16]        25,592
|    └─BasicBlock: 2-14                  [1, 56, 8, 16, 16]        [1, 56, 8, 16, 16]        --
|    |    └─BatchNorm3d: 3-80            [1, 56, 8, 16, 16]        [1, 56, 8, 16, 16]        112
|    |    └─ReLU: 3-81                   [1, 56, 8, 16, 16]        [1, 56, 8, 16, 16]        --
|    |    └─P4MConvP4M: 3-82             [1, 56, 8, 16, 16]        [1, 56, 8, 16, 16]        25,592
|    |    └─BatchNorm3d: 3-83            [1, 56, 8, 16, 16]        [1, 56, 8, 16, 16]        112
|    |    └─ReLU: 3-84                   [1, 56, 8, 16, 16]        [1, 56, 8, 16, 16]        --
|    |    └─P4MConvP4M: 3-85             [1, 56, 8, 16, 16]        [1, 56, 8, 16, 16]        25,592
├─Sequential: 1-4                        [1, 56, 8, 16, 16]        [1, 112, 8, 8, 8]         --
|    └─BasicBlock: 2-15                  [1, 56, 8, 16, 16]        [1, 112, 8, 8, 8]         --
|    |    └─BatchNorm3d: 3-86            [1, 56, 8, 16, 16]        [1, 56, 8, 16, 16]        112
|    |    └─ReLU: 3-87                   [1, 56, 8, 16, 16]        [1, 56, 8, 16, 16]        --
|    |    └─P4MConvP4M: 3-88             [1, 56, 8, 16, 16]        [1, 112, 8, 8, 8]         51,184
|    |    └─BatchNorm3d: 3-89            [1, 112, 8, 8, 8]         [1, 112, 8, 8, 8]         224
|    |    └─ReLU: 3-90                   [1, 112, 8, 8, 8]         [1, 112, 8, 8, 8]         --
|    |    └─P4MConvP4M: 3-91             [1, 112, 8, 8, 8]         [1, 112, 8, 8, 8]         101,360
|    |    └─Sequential: 3-92             [1, 56, 8, 16, 16]        [1, 112, 8, 8, 8]         50,400
|    └─BasicBlock: 2-16                  [1, 112, 8, 8, 8]         [1, 112, 8, 8, 8]         --
|    |    └─BatchNorm3d: 3-93            [1, 112, 8, 8, 8]         [1, 112, 8, 8, 8]         224
|    |    └─ReLU: 3-94                   [1, 112, 8, 8, 8]         [1, 112, 8, 8, 8]         --
|    |    └─P4MConvP4M: 3-95             [1, 112, 8, 8, 8]         [1, 112, 8, 8, 8]         101,360
|    |    └─BatchNorm3d: 3-96            [1, 112, 8, 8, 8]         [1, 112, 8, 8, 8]         224
|    |    └─ReLU: 3-97                   [1, 112, 8, 8, 8]         [1, 112, 8, 8, 8]         --
|    |    └─P4MConvP4M: 3-98             [1, 112, 8, 8, 8]         [1, 112, 8, 8, 8]         101,360
|    └─BasicBlock: 2-17                  [1, 112, 8, 8, 8]         [1, 112, 8, 8, 8]         --
|    |    └─BatchNorm3d: 3-99            [1, 112, 8, 8, 8]         [1, 112, 8, 8, 8]         224
|    |    └─ReLU: 3-100                  [1, 112, 8, 8, 8]         [1, 112, 8, 8, 8]         --
|    |    └─P4MConvP4M: 3-101            [1, 112, 8, 8, 8]         [1, 112, 8, 8, 8]         101,360
|    |    └─BatchNorm3d: 3-102           [1, 112, 8, 8, 8]         [1, 112, 8, 8, 8]         224
|    |    └─ReLU: 3-103                  [1, 112, 8, 8, 8]         [1, 112, 8, 8, 8]         --
|    |    └─P4MConvP4M: 3-104            [1, 112, 8, 8, 8]         [1, 112, 8, 8, 8]         101,360
|    └─BasicBlock: 2-18                  [1, 112, 8, 8, 8]         [1, 112, 8, 8, 8]         --
|    |    └─BatchNorm3d: 3-105           [1, 112, 8, 8, 8]         [1, 112, 8, 8, 8]         224
|    |    └─ReLU: 3-106                  [1, 112, 8, 8, 8]         [1, 112, 8, 8, 8]         --
|    |    └─P4MConvP4M: 3-107            [1, 112, 8, 8, 8]         [1, 112, 8, 8, 8]         101,360
|    |    └─BatchNorm3d: 3-108           [1, 112, 8, 8, 8]         [1, 112, 8, 8, 8]         224
|    |    └─ReLU: 3-109                  [1, 112, 8, 8, 8]         [1, 112, 8, 8, 8]         --
|    |    └─P4MConvP4M: 3-110            [1, 112, 8, 8, 8]         [1, 112, 8, 8, 8]         101,360
|    └─BasicBlock: 2-19                  [1, 112, 8, 8, 8]         [1, 112, 8, 8, 8]         --
|    |    └─BatchNorm3d: 3-111           [1, 112, 8, 8, 8]         [1, 112, 8, 8, 8]         224
|    |    └─ReLU: 3-112                  [1, 112, 8, 8, 8]         [1, 112, 8, 8, 8]         --
|    |    └─P4MConvP4M: 3-113            [1, 112, 8, 8, 8]         [1, 112, 8, 8, 8]         101,360
|    |    └─BatchNorm3d: 3-114           [1, 112, 8, 8, 8]         [1, 112, 8, 8, 8]         224
|    |    └─ReLU: 3-115                  [1, 112, 8, 8, 8]         [1, 112, 8, 8, 8]         --
|    |    └─P4MConvP4M: 3-116            [1, 112, 8, 8, 8]         [1, 112, 8, 8, 8]         101,360
|    └─BasicBlock: 2-20                  [1, 112, 8, 8, 8]         [1, 112, 8, 8, 8]         --
|    |    └─BatchNorm3d: 3-117           [1, 112, 8, 8, 8]         [1, 112, 8, 8, 8]         224
|    |    └─ReLU: 3-118                  [1, 112, 8, 8, 8]         [1, 112, 8, 8, 8]         --
|    |    └─P4MConvP4M: 3-119            [1, 112, 8, 8, 8]         [1, 112, 8, 8, 8]         101,360
|    |    └─BatchNorm3d: 3-120           [1, 112, 8, 8, 8]         [1, 112, 8, 8, 8]         224
|    |    └─ReLU: 3-121                  [1, 112, 8, 8, 8]         [1, 112, 8, 8, 8]         --
|    |    └─P4MConvP4M: 3-122            [1, 112, 8, 8, 8]         [1, 112, 8, 8, 8]         101,360
|    └─BasicBlock: 2-21                  [1, 112, 8, 8, 8]         [1, 112, 8, 8, 8]         --
|    |    └─BatchNorm3d: 3-123           [1, 112, 8, 8, 8]         [1, 112, 8, 8, 8]         224
|    |    └─ReLU: 3-124                  [1, 112, 8, 8, 8]         [1, 112, 8, 8, 8]         --
|    |    └─P4MConvP4M: 3-125            [1, 112, 8, 8, 8]         [1, 112, 8, 8, 8]         101,360
|    |    └─BatchNorm3d: 3-126           [1, 112, 8, 8, 8]         [1, 112, 8, 8, 8]         224
|    |    └─ReLU: 3-127                  [1, 112, 8, 8, 8]         [1, 112, 8, 8, 8]         --
|    |    └─P4MConvP4M: 3-128            [1, 112, 8, 8, 8]         [1, 112, 8, 8, 8]         101,360
├─BatchNorm3d: 1-5                       [1, 112, 8, 8, 8]         [1, 112, 8, 8, 8]         224
├─ReLU: 1-6                              [1, 112, 8, 8, 8]         [1, 112, 8, 8, 8]         --
├─AdaptiveAvgPool2d: 1-7                 [1, 896, 8, 8]            [1, 896, 1, 1]            --
├─Linear: 1-8                            [1, 896]                  [1, 10]                   8,970
===================================================================================================================
Total params: 1,884,270
Trainable params: 1,884,270
Non-trainable params: 0
Total mult-adds (M): 63.20
===================================================================================================================
Input size (MB): 0.01
Forward/backward pass size (MB): 91.88
Params size (MB): 7.19
…
